main (import success)
before  (60000L, 28L, 28L)
CNN called
Loaded model from disk
model compiled
_________________________________________________________________
Layer (type)                 Output Shape              Param #   
=================================================================
conv2d_1 (Conv2D)            (None, 26, 26, 3)         30        
_________________________________________________________________
conv2d_2 (Conv2D)            (None, 24, 24, 3)         84        
_________________________________________________________________
max_pooling2d_1 (MaxPooling2 (None, 12, 12, 3)         0         
_________________________________________________________________
dropout_1 (Dropout)          (None, 12, 12, 3)         0         
_________________________________________________________________
flatten_1 (Flatten)          (None, 432)               0         
_________________________________________________________________
dense_1 (Dense)              (None, 128)               55424     
_________________________________________________________________
dropout_2 (Dropout)          (None, 128)               0         
_________________________________________________________________
dense_2 (Dense)              (None, 10)                1290      
=================================================================
Total params: 56,828
Trainable params: 56,828
Non-trainable params: 0
_________________________________________________________________
None
Score for CNN1 test K=3, F=3, D=128, B=32 is: [0.076723115989798682, 0.97729999999999995] 
Score for CNN1 train K=3, F=3, D=128, B=32 is: [0.064820358675081902, 0.98109999999999997] 
['loss', 'acc']
Time fit:  ['226.499000072']
Time eval test data:  3.25600004196
Time eval training data:  7.39400005341
________________________________________
CNN called
Loaded model from disk
model compiled
_________________________________________________________________
Layer (type)                 Output Shape              Param #   
=================================================================
conv2d_1 (Conv2D)            (None, 24, 24, 3)         78        
_________________________________________________________________
conv2d_2 (Conv2D)            (None, 20, 20, 3)         228       
_________________________________________________________________
max_pooling2d_1 (MaxPooling2 (None, 10, 10, 3)         0         
_________________________________________________________________
dropout_1 (Dropout)          (None, 10, 10, 3)         0         
_________________________________________________________________
flatten_1 (Flatten)          (None, 300)               0         
_________________________________________________________________
dense_1 (Dense)              (None, 128)               38528     
_________________________________________________________________
dropout_2 (Dropout)          (None, 128)               0         
_________________________________________________________________
dense_2 (Dense)              (None, 10)                1290      
=================================================================
Total params: 40,124
Trainable params: 40,124
Non-trainable params: 0
_________________________________________________________________
None
Score for CNN1 test K=3, F=5, D=128, B=32 is: [0.1562398538230802, 0.95760000000000001] 
Score for CNN1 train K=3, F=5, D=128, B=32 is: [0.16397070477561404, 0.9529333333333333] 
['loss', 'acc']
Time fit:  ['235.519999981']
Time eval test data:  2.34100008011
Time eval training data:  9.96399998665
________________________________________
CNN called
Loaded model from disk
model compiled
_________________________________________________________________
Layer (type)                 Output Shape              Param #   
=================================================================
conv2d_1 (Conv2D)            (None, 26, 26, 3)         30        
_________________________________________________________________
conv2d_2 (Conv2D)            (None, 24, 24, 3)         84        
_________________________________________________________________
max_pooling2d_1 (MaxPooling2 (None, 12, 12, 3)         0         
_________________________________________________________________
dropout_1 (Dropout)          (None, 12, 12, 3)         0         
_________________________________________________________________
flatten_1 (Flatten)          (None, 432)               0         
_________________________________________________________________
dense_1 (Dense)              (None, 256)               110848    
_________________________________________________________________
dropout_2 (Dropout)          (None, 256)               0         
_________________________________________________________________
dense_2 (Dense)              (None, 10)                2570      
=================================================================
Total params: 113,532
Trainable params: 113,532
Non-trainable params: 0
_________________________________________________________________
None
Score for CNN1 test K=3, F=3, D=256, B=32 is: [0.098763365899815103, 0.97330000000000005] 
Score for CNN1 train K=3, F=3, D=256, B=32 is: [0.07295147299148666, 0.97833333333333339] 
…
A: 0s - loss: 0.1757 - acc: 0.951959936/60000 [============================>.] - ETA: 0s - loss: 0.1757 - acc: 0.951960000/60000 [==============================] - 36s - loss: 0.1758 - acc: 0.9519    
_________________________________________________________________
Layer (type)                 Output Shape              Param #   
=================================================================
conv2d_1 (Conv2D)            (None, 26, 26, 3)         30        
_________________________________________________________________
conv2d_2 (Conv2D)            (None, 24, 24, 3)         84        
_________________________________________________________________
max_pooling2d_1 (MaxPooling2 (None, 12, 12, 3)         0         
_________________________________________________________________
dropout_1 (Dropout)          (None, 12, 12, 3)         0         
_________________________________________________________________
flatten_1 (Flatten)          (None, 432)               0         
_________________________________________________________________
dense_1 (Dense)              (None, 384)               166272    
_________________________________________________________________
dropout_2 (Dropout)          (None, 384)               0         
_________________________________________________________________
dense_2 (Dense)              (None, 10)                3850      
=================================================================
Total params: 170,236
Trainable params: 170,236
Non-trainable params: 0
_________________________________________________________________
None
Score for CNN1 test K=3, F=3, D=384, B=32 is: [0.098545270059761242, 0.97199999999999998] 
Score for CNN1 train K=3, F=3, D=384, B=32 is: [0.08511923136330006, 0.97486666666666666] 
…
