main (import success)
before  (60000L, 28L, 28L)
CNN called
Model output shape (None, 26, 26, 3)
_________________________________________________________________
Layer (type)                 Output Shape              Param #   
=================================================================
conv2d_1 (Conv2D)            (None, 26, 26, 3)         30        
_________________________________________________________________
conv2d_2 (Conv2D)            (None, 24, 24, 3)         84        
_________________________________________________________________
max_pooling2d_1 (MaxPooling2 (None, 12, 12, 3)         0         
_________________________________________________________________
dropout_1 (Dropout)          (None, 12, 12, 3)         0         
_________________________________________________________________
flatten_1 (Flatten)          (None, 432)               0         
=================================================================
Total params: 114
Trainable params: 114
Non-trainable params: 0
_________________________________________________________________
None
model compiled
Epoch 1/10
   32/60000 [..............................] - ETA: 26s - loss: 2.3266 - acc: 0.0000e+00
…
