…
A: 0s - loss: 0.5778 - acc: 0.851859904/60000 [============================>.] - ETA: 0s - loss: 0.5783 - acc: 0.851760000/60000 [==============================] - 30s - loss: 0.5783 - acc: 0.8518    
_________________________________________________________________
Layer (type)                 Output Shape              Param #   
=================================================================
conv2d_1 (Conv2D)            (None, 18, 18, 3)         366       
_________________________________________________________________
conv2d_2 (Conv2D)            (None, 8, 8, 3)           1092      
_________________________________________________________________
max_pooling2d_1 (MaxPooling2 (None, 4, 4, 3)           0         
_________________________________________________________________
dropout_1 (Dropout)          (None, 4, 4, 3)           0         
_________________________________________________________________
flatten_1 (Flatten)          (None, 48)                0         
_________________________________________________________________
dense_1 (Dense)              (None, 128)               6272      
_________________________________________________________________
dropout_2 (Dropout)          (None, 128)               0         
_________________________________________________________________
dense_2 (Dense)              (None, 10)                1290      
=================================================================
Total params: 9,020
Trainable params: 9,020
Non-trainable params: 0
_________________________________________________________________
None
Score for CNN1 train K=3, F=11, D=128, B=32 is: [0.31923354734530052, 0.91995000000000005] (['loss', 'acc'])
Score for CNN1 test K=3, F=11, D=128, B=32 is: [0.3128849865466356, 0.9224] (['loss', 'acc'])
…
