…
A: 0s - loss: 0.2375 - acc: 0.929859904/60000 [============================>.] - ETA: 0s - loss: 0.2375 - acc: 0.929860000/60000 [==============================] - 21s - loss: 0.2378 - acc: 0.9297    
_________________________________________________________________
Layer (type)                 Output Shape              Param #   
=================================================================
conv2d_1 (Conv2D)            (None, 26, 26, 3)         30        
_________________________________________________________________
conv2d_2 (Conv2D)            (None, 24, 24, 3)         84        
_________________________________________________________________
max_pooling2d_1 (MaxPooling2 (None, 12, 12, 3)         0         
_________________________________________________________________
dropout_1 (Dropout)          (None, 12, 12, 3)         0         
_________________________________________________________________
flatten_1 (Flatten)          (None, 432)               0         
_________________________________________________________________
dense_1 (Dense)              (None, 64)                27712     
_________________________________________________________________
dropout_2 (Dropout)          (None, 64)                0         
_________________________________________________________________
dense_2 (Dense)              (None, 10)                650       
=================================================================
Total params: 28,476
Trainable params: 28,476
Non-trainable params: 0
_________________________________________________________________
None
Score for CNN1 train K=3, F=3, D=64, B=32 is: [0.13762093986324034, 0.95901666666666663] (['loss', 'acc'])
Score for CNN1 test K=3, F=3, D=64, B=32 is: [0.13674184044392315, 0.95989999999999998] (['loss', 'acc'])
…
